…
2023-07-17 16:01:27.421943: I tensorflow/core/common_runtime/gpu/gpu_device.cc:1616] Created device /job:localhost/replica:0/task:0/device:GPU:0 with 5447 MB memory:  -> device: 0, name: NVIDIA GeForce RTX 3070 Ti, pci bus id: 0000:01:00.0, compute capability: 8.6
Model: "vgg16"
_________________________________________________________________
 Layer (type)                Output Shape              Param #   
=================================================================
 input_2 (InputLayer)        [(None, 150, 150, 3)]     0         
                                                                 
 block1_conv1 (Conv2D)       (None, 150, 150, 64)      1792      
                                                                 
 block1_conv2 (Conv2D)       (None, 150, 150, 64)      36928     
                                                                 
 block1_pool (MaxPooling2D)  (None, 75, 75, 64)        0         
                                                                 
 block2_conv1 (Conv2D)       (None, 75, 75, 128)       73856     
                                                                 
 block2_conv2 (Conv2D)       (None, 75, 75, 128)       147584    
                                                                 
 block2_pool (MaxPooling2D)  (None, 37, 37, 128)       0         
                                                                 
 block3_conv1 (Conv2D)       (None, 37, 37, 256)       295168    
                                                                 
 block3_conv2 (Conv2D)       (None, 37, 37, 256)       590080    
                                                                 
 block3_conv3 (Conv2D)       (None, 37, 37, 256)       590080    
                                                                 
 block3_pool (MaxPooling2D)  (None, 18, 18, 256)       0         
                                                                 
 block4_conv1 (Conv2D)       (None, 18, 18, 512)       1180160   
                                                                 
 block4_conv2 (Conv2D)       (None, 18, 18, 512)       2359808   
                                                                 
 block4_conv3 (Conv2D)       (None, 18, 18, 512)       2359808   
                                                                 
 block4_pool (MaxPooling2D)  (None, 9, 9, 512)         0         
                                                                 
 block5_conv1 (Conv2D)       (None, 9, 9, 512)         2359808   
                                                                 
 block5_conv2 (Conv2D)       (None, 9, 9, 512)         2359808   
                                                                 
 block5_conv3 (Conv2D)       (None, 9, 9, 512)         2359808   
                                                                 
 block5_pool (MaxPooling2D)  (None, 4, 4, 512)         0         
                                                                 
=================================================================
Total params: 14,714,688
Trainable params: 14,714,688
Non-trainable params: 0
_________________________________________________________________
None
Model: "model"
_________________________________________________________________
 Layer (type)                Output Shape              Param #   
=================================================================
 input_2 (InputLayer)        [(None, 150, 150, 3)]     0         
                                                                 
 block1_conv1_second (Conv2D  (None, 150, 150, 64)     1792      
 )                                                               
                                                                 
 block1_conv2_second (Conv2D  (None, 150, 150, 64)     36928     
 )                                                               
                                                                 
 block1_pool_second (MaxPool  (None, 75, 75, 64)       0         
 ing2D)                                                          
                                                                 
 block2_conv1_second (Conv2D  (None, 75, 75, 128)      73856     
 )                                                               
                                                                 
 block2_conv2_second (Conv2D  (None, 75, 75, 128)      147584    
 )                                                               
                                                                 
 block2_pool_second (MaxPool  (None, 37, 37, 128)      0         
 ing2D)                                                          
                                                                 
 block3_conv1_second (Conv2D  (None, 37, 37, 256)      295168    
 )                                                               
                                                                 
 block3_conv2_second (Conv2D  (None, 37, 37, 256)      590080    
 )                                                               
                                                                 
 block3_conv3_second (Conv2D  (None, 37, 37, 256)      590080    
 )                                                               
                                                                 
 block3_pool_second (MaxPool  (None, 18, 18, 256)      0         
 ing2D)                                                          
                                                                 
 block4_conv1_second (Conv2D  (None, 18, 18, 512)      1180160   
 )                                                               
                                                                 
 block4_conv2_second (Conv2D  (None, 18, 18, 512)      2359808   
 )                                                               
                                                                 
 block4_conv3_second (Conv2D  (None, 18, 18, 512)      2359808   
 )                                                               
                                                                 
 block4_pool_second (MaxPool  (None, 9, 9, 512)        0         
 ing2D)                                                          
                                                                 
 block5_conv1_second (Conv2D  (None, 9, 9, 512)        2359808   
 )                                                               
                                                                 
 block5_conv2_second (Conv2D  (None, 9, 9, 512)        2359808   
 )                                                               
                                                                 
 block5_conv3_second (Conv2D  (None, 9, 9, 512)        2359808   
 )                                                               
                                                                 
 block5_pool_second (MaxPool  (None, 4, 4, 512)        0         
 ing2D)                                                          
                                                                 
=================================================================
Total params: 14,714,688
Trainable params: 14,714,688
Non-trainable params: 0
_________________________________________________________________
None
Model: "model_1"
__________________________________________________________________________________________________
…
 block1_conv2 (Conv2D)          (None, 150, 150, 64  36928       ['block1_conv1[0][0]']           
                                )                                                                 
                                                                                                  
 block1_conv2_second (Conv2D)   (None, 150, 150, 64  36928       ['block1_conv1_second[0][0]']    
                                )                                                                 
                                                                                                  
 block1_pool (MaxPooling2D)     (None, 75, 75, 64)   0           ['block1_conv2[0][0]']           
                                                                                                  
 block1_pool_second (MaxPooling  (None, 75, 75, 64)  0           ['block1_conv2_second[0][0]']    
 2D)                                                                                              
                                                                                                  
 block2_conv1 (Conv2D)          (None, 75, 75, 128)  73856       ['block1_pool[0][0]']            
                                                                                                  
 block2_conv1_second (Conv2D)   (None, 75, 75, 128)  73856       ['block1_pool_second[0][0]']     
                                                                                                  
 block2_conv2 (Conv2D)          (None, 75, 75, 128)  147584      ['block2_conv1[0][0]']           
                                                                                                  
 block2_conv2_second (Conv2D)   (None, 75, 75, 128)  147584      ['block2_conv1_second[0][0]']    
                                                                                                  
 block2_pool (MaxPooling2D)     (None, 37, 37, 128)  0           ['block2_conv2[0][0]']           
                                                                                                  
 block2_pool_second (MaxPooling  (None, 37, 37, 128)  0          ['block2_conv2_second[0][0]']    
 2D)                                                                                              
                                                                                                  
 block3_conv1 (Conv2D)          (None, 37, 37, 256)  295168      ['block2_pool[0][0]']            
                                                                                                  
 block3_conv1_second (Conv2D)   (None, 37, 37, 256)  295168      ['block2_pool_second[0][0]']     
                                                                                                  
 block3_conv2 (Conv2D)          (None, 37, 37, 256)  590080      ['block3_conv1[0][0]']           
                                                                                                  
C:\Users\pc\miniconda3\envs\dino\lib\site-packages\keras\optimizers\optimizer_v2\gradient_descent.py:111: UserWarning: The `lr` argument is deprecated, use `learning_rate` instead.
  super().__init__(name, **kwargs)
 block3_conv2_second (Conv2D)   (None, 37, 37, 256)  590080      ['block3_conv1_second[0][0]']    
                                                                                                  
 block3_conv3 (Conv2D)          (None, 37, 37, 256)  590080      ['block3_conv2[0][0]']           
                                                                                                  
 block3_conv3_second (Conv2D)   (None, 37, 37, 256)  590080      ['block3_conv2_second[0][0]']    
                                                                                                  
 block3_pool (MaxPooling2D)     (None, 18, 18, 256)  0           ['block3_conv3[0][0]']           
                                                                                                  
 block3_pool_second (MaxPooling  (None, 18, 18, 256)  0          ['block3_conv3_second[0][0]']    
 2D)                                                                                              
                                                                                                  
 block4_conv1 (Conv2D)          (None, 18, 18, 512)  1180160     ['block3_pool[0][0]']            
                                                                                                  
 block4_conv1_second (Conv2D)   (None, 18, 18, 512)  1180160     ['block3_pool_second[0][0]']     
                                                                                                  
 block4_conv2 (Conv2D)          (None, 18, 18, 512)  2359808     ['block4_conv1[0][0]']           
                                                                                                  
 block4_conv2_second (Conv2D)   (None, 18, 18, 512)  2359808     ['block4_conv1_second[0][0]']    
                                                                                                  
 block4_conv3 (Conv2D)          (None, 18, 18, 512)  2359808     ['block4_conv2[0][0]']           
                                                                                                  
 block4_conv3_second (Conv2D)   (None, 18, 18, 512)  2359808     ['block4_conv2_second[0][0]']    
                                                                                                  
 block4_pool (MaxPooling2D)     (None, 9, 9, 512)    0           ['block4_conv3[0][0]']           
                                                                                                  
 block4_pool_second (MaxPooling  (None, 9, 9, 512)   0           ['block4_conv3_second[0][0]']    
 2D)                                                                                              
                                                                                                  
 block5_conv1 (Conv2D)          (None, 9, 9, 512)    2359808     ['block4_pool[0][0]']            
                                                                                                  
 block5_conv1_second (Conv2D)   (None, 9, 9, 512)    2359808     ['block4_pool_second[0][0]']     
                                                                                                  
 block5_conv2 (Conv2D)          (None, 9, 9, 512)    2359808     ['block5_conv1[0][0]']           
                                                                                                  
 block5_conv2_second (Conv2D)   (None, 9, 9, 512)    2359808     ['block5_conv1_second[0][0]']    
                                                                                                  
 block5_conv3 (Conv2D)          (None, 9, 9, 512)    2359808     ['block5_conv2[0][0]']           
                                                                                                  
 block5_conv3_second (Conv2D)   (None, 9, 9, 512)    2359808     ['block5_conv2_second[0][0]']    
                                                                                                  
 reshape (Reshape)              (None, 81, 512)      0           ['block5_conv3[0][0]']           
                                                                                                  
C:\Users\pc\miniconda3\envs\dino\lib\site-packages\keras\preprocessing\image.py:1446: UserWarning: This ImageDataGenerator specifies `zca_whitening`, which overrides setting of `featurewise_center`.
  warnings.warn(
 reshape_1 (Reshape)            (None, 81, 512)      0           ['block5_conv3_second[0][0]']    
                                                                                                  
 lambda (Lambda)                (None, 512, 512)     0           ['reshape[0][0]',                
                                                                  'reshape_1[0][0]']              
                                                                                                  
 reshape_2 (Reshape)            (None, 262144)       0           ['lambda[0][0]']                 
                                                                                                  
 lambda_1 (Lambda)              (None, 262144)       0           ['reshape_2[0][0]']              
                                                                                                  
 lambda_2 (Lambda)              (None, 262144)       0           ['lambda_1[0][0]']               
                                                                                                  
 dropout (Dropout)              (None, 262144)       0           ['lambda_2[0][0]']               
                                                                                                  
 dense (Dense)                  (None, 50)           13107250    ['dropout[0][0]']                
                                                                                                  
 activation (Activation)        (None, 50)           0           ['dense[0][0]']                  
                                                                                                  
==================================================================================================
Total params: 42,536,626
Trainable params: 27,821,938
Non-trainable params: 14,714,688
__________________________________________________________________________________________________
…
